LIC01_AiMV4868_dqn_Results/LIC01_AiMV_policy.tflite (tflite, 88664 bytes, 5 tensors)

sequential/dense/BiasAdd/ReadVariableOp f4 [64]
00000000: 60ac 98bc 4739 56be 880c b2bd 486a b2bd
00000010: a535 85bd 2752 d3bc e5b4 f9bc 4430 11bf
00000020: 5909 4e3e 594b 42be 391a 45be 0000 0000
00000030: 4046 a7bb 0000 0000 92ec 9bbd e075 43bf
00000040: ba5c debd fc24 b6be cedb 09be f1f6 72be
00000050: 712c cebc 0000 0000 9dc0 2fbe ad7b 18bd
00000060: b004 e3be ad4c 043f cf99 b8bd d8a1 183e
00000070: 4bc7 26be cf96 f43e e321 16bf fa73 59bd
00000080: f6b8 543d a7eb e9bd a273 49be c5f3 d23d
00000090: 211c 91be 30e7 0cbe 1531 9abe 9ff7 ed3e
000000a0: 125c 8a3e 89d8 233f 0971 073f 01b5 52be
000000b0: 0df6 d9bd 0000 0000 0dd7 31bd 91d6 9e3d
000000c0: b912 1e3f 0006 93bd 031e 9b3d 176d 0e3e
000000d0: f35e c6bd 0000 0000 5362 eebb 6e92 f2bd
000000e0: f782 87be 417c 22be 7d23 c2be d2e8 aabe
000000f0: 1928 b3be c8f7 003f dde5 b9be 9d92 ee3e
-0.018636882 -0.20920287 -0.086937964 -0.08711678 -0.065043725 -0.02579601 -0.030481765 -0.5671427
0.20120753 -0.18974055 -0.19248284 0.0 -0.00510481 0.0 -0.076134816 -0.7635174
-0.1085753 -0.35575092 -0.13462755 -0.23727013 -0.025167676 0.0 -0.1716332 -0.03722732
-0.44339514 0.516795 -0.09013712 0.14905488 -0.16286962 0.47771308 -0.5864546 -0.05308912
0.051934205 -0.114219 -0.19673017 0.103004016 -0.28341773 -0.13760066 -0.30115572 0.46477982
0.2702337 0.6400228 0.5290685 -0.2057686 -0.106426336 0.0 -0.04341798 0.07755769
0.6174732 -0.07178879 0.07574084 0.13908802 -0.09686079 0.0 -0.0072749048 -0.118443355
-0.26467106 -0.15867712 -0.379177 -0.33380753 -0.3499153 0.50378084 -0.36308184 0.46596232

sequential/dense_1/BiasAdd/ReadVariableOp f4 [64]
00000000: 78c9 95bc bf41 c6be 4993 5fbd e500 a13e
00000010: bc40 84bd d438 b4bd 2066 90bd 889a b2bd
00000020: a36d 02be 4851 64bd f598 82bd a909 55bd
00000030: 0f7a 09be 507f e4bc 4010 11bf 7813 96bd
00000040: 805f bebc 0640 99bd 0661 75bd 4291 8abd
00000050: c2e6 68bd 3287 bdbd 3df6 4dbd 691f 93bd
00000060: 2c4b 2bbe 5928 86bd 57f1 4dbd d404 85be
00000070: 01d2 8dbd 8ccb 93bc 04d7 89bd 566b 6abd
00000080: 6fdb 75bd 4291 d8bd 6a34 61bf 16e6 153e
00000090: d080 323d f914 79bd 24d3 bdbd dd51 8dbd
000000a0: 587c 29bd c57f 76bd d7a5 8dbd e4e1 99bf
000000b0: 0d03 e5be e20c d83d aaf1 7a3e 46e0 c4be
000000c0: 6c7b 81bd 7bf1 8cbd ffe5 6cbe cd9a 0bbd
000000d0: 2d0f 98be bc48 0bbd 3ee7 10bf 37c8 8ebc
000000e0: aa5c 07bd 410e 1b3d d073 11be 1e5c 94bc
000000f0: a81a 68be 3afc 02be e4a3 6dbf eaef 70be
-0.018284544 -0.38722035 -0.05458382 0.31445995 -0.064576596 -0.087999016 -0.07050729 -0.08720881
-0.12737136 -0.05574158 -0.063768305 -0.052011166 -0.13425468 -0.027892739 -0.5666542 -0.07327932
-0.023238897 -0.074829146 -0.059906982 -0.06765987 -0.056860693 -0.09254302 -0.05028366 -0.071837254
-0.16727895 -0.065506645 -0.050278988 -0.25980246 -0.06924821 -0.018041395 -0.06730464 -0.05723127
-0.06002372 -0.10574581 -0.879706 0.14638552 0.043579876 -0.060811017 -0.092687875 -0.0690038
-0.04137835 -0.060180444 -0.06916397 -1.2022061 -0.4472889 0.10549332 0.2450625 -0.38452357
-0.06322369 -0.06881996 -0.23134612 -0.034083176 -0.29699078 -0.03400491 -0.5660285 -0.017429454
-0.033047356 0.03785539 -0.14204335 -0.018110331 -0.22666419 -0.1279153 -0.928282 -0.2352902

sequential/dense/Tensordot/MatMul1 f4 [64, 6]
00000000: ca52 aebd 8873 7dbe 4501 b03d b221 8dbe
00000010: 3467 bbbd 1e49 4b3d b6fe 753e f1e0 cbbe
00000020: 0ae4 653d f430 413c 5c64 c6be f5dd 183e
00000030: 37f1 80be c3f7 10be 28ec cbbe 1416 94be
00000040: 0e4b 95be 287b b03e 858f 51be c5fd 59be
00000050: a394 f3be 3ac6 753e 1e88 5f3d d268 083e
00000060: 905e a0bd fc38 f7bd e13f 39be bc9e 56be
00000070: afdb 363e 800b 5ebe 18d3 23bf 73ce c23e
00000080: 30f8 113f 510b e7be a12d e1bd 3804 92bf
00000090: b636 ec3d 108c 573d 9631 d3be 0a99 fcbe
000000a0: 510d 96be 15c6 03be 6f83 f23e 86c2 6dbe
000000b0: a2ad a13e 9cae a3bd 3968 553e 1942 233f
000000c0: 0dd0 32bf 0f5a 403e 4a38 fcbe 1474 9b3b
000000d0: 95f0 0e3f c342 37bf e93a fdbd ad48 7fbe
000000e0: 6367 583d 78dc ecbe 9f4e 2c3e 96e6 253e
000000f0: d923 5bbe d45e c83c 82a7 a33e 70f7 abbc
00000100: a7fe 3bbf c441 39be 865c 44be 2938 7ebe
00000110: ca11 72be 58e7 053e 7857 08bd 40c2 7c3c
00000120: 5950 5f3d 476d b0bd 8393 8fbe 476d 8ebe
00000130: 6610 ae3c b615 f0bd 2699 82be b1c3 06be
00000140: b4c8 06be fe20 2b3e ecc7 47bd c0e6 96bd
00000150: e8c1 c0be 56fc 2bbe 30d6 313e 4eea b0be
00000160: 6ea4 e4be acb5 8e3d 741e bf3e 8aca 39be
00000170: e849 ec3e 5811 763e bfbc 933e 2d59 e4bc
00000180: 4f13 77be a8ef a0be 0aa0 ed3d d49e 4dbe
00000190: 574e 19bd fb01 e03d f70d a43e 0221 34be
000001a0: 6569 4e3f b4ee 8abd bff9 ddbe f2da 703d
000001b0: 08d1 a53d 6f58 0abe aa5f bfbe 042b 3f3e
000001c0: 39ac 60be 4d4a 8abe d3b1 693d 854d 1f3d
000001d0: ff8a 273e 826e 08be e5ff 86bc f40c 21be
000001e0: 5af9 273e f359 7ebe 3b6b d6bd a6ae 78be
000001f0: 5c81 82be dcb6 2c3d b24f f0bd b0fb 35be
00000200: f8b8 01bd c20b 18be 7c91 813d bc33 58bd
00000210: 83d4 de3e 0870 db3a c35b 8bbf 6603 61bf
00000220: da34 76be a329 79bf 3d0c 4ebe 8eb2 a8be
00000230: c162 4abe ccec 003e a558 813e d3c5 d2bd
00000240: ec6e 883d fc78 b53d 152f 813e d8bc 1bbe
00000250: 26df 8c3e 9e28 1f3e 4853 a83d da7b 19bd
00000260: 5dd8 c9c0 5547 513e 0e2c ccbd 92d2 84be
00000270: 1bac 4fbf 975e 643f 93a6 173f 1e48 a4be
00000280: 6576 d0be a5ad 25be c97a 05be 8e77 383e
00000290: 010d 26bf 73ef e93d 2067 12c0 5eeb 0bbe
000002a0: 56b7 80bf dc4a 4e3f 6ec5 373f 6ea0 48be
000002b0: 2b3c 5fbe bffa c2bc 2ac7 62be c597 c93e
000002c0: 33e5 11c0 0111 ca3d 702b 12bc c99d ebbc
000002d0: 0d6e 013d 718a cf3d c92d 373f f355 083d
000002e0: 4a4f 94bd fcce 71bc d878 6fbe a5ca be3d
000002f0: b95e 67c0 bef6 bcbd ce75 8dbf 12aa 3fbe
00000300: e3c9 453e 52be 22be 4956 62bf 3305 953e
00000310: e58f 1b3f 7937 033e 28f3 d4bd afd3 3d3e
00000320: 99c4 8dbe 0cdf c1be 2674 3a3d d445 a8be
00000330: f9e2 13be c706 17be c0fa d53c 7131 69be
00000340: 5ee6 27be d67d 073e ad87 a4be e0c7 4bbe
00000350: 7646 823f c0f9 acbd 24f7 21bf 017e b7bd
00000360: 377c 91be 34fe ab3c 22e1 633f 0363 17be
00000370: 65e7 47bf bf5e 91be 7ef7 c0be ffbd 0f3e
00000380: 3c54 d1bd fa6d e33d 891f 7b3c 2777 16be
00000390: dec4 d33e c425 98be 6c63 7b3f 47b8 2a3e
000003a0: ade3 683e 3170 023d d058 1fbf a993 433e
000003b0: 39ef d1be 3107 70be 1553 ca3e 94f9 933d
000003c0: 6a8f 7bbf 9dbd c43e 2f02 cabf dcaf 5dbe
000003d0: 8279 55bf 1f30 ebbd 087b 4ebe 86a3 413e
000003e0: d9dc 09bf 4408 84ba bc4c f4bd ece5 643d
000003f0: 5d0d 60bf 831a 95bd 6bf0 f1be bc27 9d3e
-0.085118845 -0.24751103 0.08593992 -0.2756477 -0.09150544 0.049630277 0.24022946 -0.39820054
0.056125678 0.0117914565 -0.38748443 0.1492842 -0.25184032 -0.14157014 -0.3982861 -0.28923094
-0.29158825 0.3446896 -0.20464905 -0.21288212 -0.47574338 0.24001399 0.05457317 0.13321236
-0.07830536 -0.12071416 -0.18090774 -0.2095899 0.1785724 -0.21684074 -0.6399398 0.38048133
0.5701933 -0.4512582 -0.10995031 -1.1407537 0.11533873 0.05262381 -0.4124877 -0.4933551
-0.29307035 -0.12868531 0.473659 -0.23218736 0.31577784 -0.079922885 0.20840539 0.6377273
-0.6984871 0.18784355 -0.49261695 0.004744062 0.5583585 -0.71586245 -0.12364752 -0.24930067
0.052832972 -0.46261954 0.16826867 0.16201243 -0.21400394 0.02445928 0.31963736 -0.02099201
-0.73435444 -0.18091494 -0.1917592 -0.24826111 -0.23639598 0.13076532 -0.03328654 0.015427172
0.054519985 -0.08614593 -0.2804223 -0.27817747 0.021248054 -0.11722891 -0.25507468 -0.13160588
-0.131625 0.16711804 -0.048774645 -0.07368231 -0.3764794 -0.16795477 0.17366862 -0.3455376
-0.446567 0.06968245 0.3732792 -0.18143669 0.46150136 0.24030054 0.2885494 -0.027874554
-0.2412846 -0.31432843 0.11602791 -0.2008012 -0.037428226 0.10937878 0.32041904 -0.17590716
0.8062957 -0.0678381 -0.43354604 0.058802553 0.0809651 -0.13510297 -0.37377673 0.18668753
-0.21940698 -0.27009812 0.057054352 0.038892288 0.16361617 -0.13323405 -0.016479442 -0.15727597
0.16403714 -0.24839 -0.10469671 -0.24285373 -0.25489318 0.042166576 -0.11733951 -0.17771792
-0.03167054 -0.14848235 0.06326577 -0.052783713 0.4352151 0.0016741762 -1.0887378 -0.8789581
-0.24043599 -0.9732916 -0.20121856 -0.32948726 -0.19764234 0.12590331 0.25262943 -0.10291638
0.06661782 0.088609666 0.25231233 -0.15208757 0.27514 0.15542838 0.0821901 -0.03747163
-6.3076615 0.20437367 -0.0996934 -0.25941902 -0.8112199 0.8920683 0.5923855 -0.3208627
-0.40715328 -0.16179521 -0.1303512 0.18014356 -0.6486359 0.114226244 -2.2875443 -0.13664004
-1.005595 0.80582976 0.7178563 -0.19592449 -0.21800296 -0.023801206 -0.22146288 0.39373603
-2.2796142 0.098665245 -0.008921489 -0.028761761 0.031599093 0.101338275 0.7155424 0.033285093
-0.07241686 -0.014758822 -0.23385942 0.09315995 -3.6151564 -0.0922675 -1.1051576 -0.1871722
0.19315295 -0.15892914 -0.8841291 0.2910553 0.6076644 0.1281413 -0.10397941 0.18537782
-0.27689055 -0.37865484 0.045520924 -0.32865775 -0.14442052 -0.14748679 0.026120543 -0.22772767
-0.16396472 0.13231596 -0.32134762 -0.19900465 1.0177753 -0.084460735 -0.6326773 -0.0895958
-0.2841508 0.020995237 0.890154 -0.14783864 -0.78087455 -0.28392598 -0.37688822 0.14037322
-0.102211446 0.11104961 0.015327343 -0.1469389 0.41361135 -0.29716313 0.9819858 0.16671859
0.22743101 0.031845275 -0.6224489 0.19099297 -0.41002825 -0.23440243 0.39516512 0.072253376
-0.9826571 0.38425913 -1.5781916 -0.21649116 -0.8338853 -0.11483788 -0.2016412 0.18910035
-0.5385261 -0.0010073264 -0.119286984 0.055883333 -0.8752039 -0.07280447 -0.47253737 0.30694377

sequential/dense_1/MatMul f4 [64, 320]
00000000: 00dc 4d3b c492 71bd 3498 ee3d 4869 65bd
00000010: 00a3 3cbd 9e9a c7bd 5401 ed3d 10bb 963d
00000020: 71e7 c53c e193 75bd e017 e93d 1070 a4bc
00000030: 61e5 53bd c0dd d4bd 74df f93d ec81 11bd
00000040: b3dc 293c 572c d5bd 9c46 dd3d d007 9dbd
00000050: 1202 0dbe e052 b7bc 80cc b2bc c8d0 0a3d
00000060: 627d dc3a b9fb 9fbd 847e d13d 7993 9d3d
00000070: 32ef 1d3d 0e8a 01be 4d1d 4b3c 496d 1cbd
00000080: f561 b93d f8e2 6fbd 75ce d6bd 0a2e 303d
00000090: 7a1c 04bd 9979 903d 1d73 983d ed03 163c
000000a0: 3ccf bdbd 1bd7 373d 8fc9 063d 40b2 00bc
000000b0: c0fa 923b 0c60 893d 80a7 26bc a610 b6ba
000000c0: 35e4 e5bd 7056 ffbc 6b00 963d a058 7fbc
000000d0: 2861 473d a032 c1bd 385e 8bbd 34f7 693d
000000e0: 8027 543d 38c0 423d d55c 60bd 4e8e c33d
000000f0: de34 97bd 844f b73d 7831 34bd 6e0e 77bd
00000100: 08f9 183d 8fa2 04be 0b6d d13d d78e 46bd
00000110: 484a 883d b3bb 6b3d 187c 103d 0a43 4bbd
00000120: 38d7 b1bd 5ac9 83bc 2b9b cf3d 1862 213d
00000130: 27c8 fbbc 700b fcbc 1446 fa3d 2843 cc3d
00000140: 8869 9c3d c293 313d 2032 933c 910e 36bd
00000150: 97a8 0abd 80b2 10bc 4079 ef3b 40c0 f53b
00000160: 6a59 8b3d d484 97bc f475 8cbd 7da7 2abd
00000170: 2f56 473a e0bf a9bc 9468 d9bd c521 e23d
00000180: ed62 45bd 40de ae3d 3867 143a d05a 283d
00000190: 6f9a b43d 8d11 50bd b032 cabd f227 6bbc
000001a0: f084 7fbd a402 7e3d 6ecd 0abe e009 e33c
000001b0: 7039 38bd a08c 153d 2084 30bc 4299 fbbd
000001c0: 2888 8cbd 8011 573d 2377 4c3b b094 73bd
000001d0: 6092 4cbc c013 7e3c 00ba d2ba 2466 ca3c
000001e0: fe0a 803d 0097 463b 23ac 83bd de4d 113d
000001f0: 3e8b 50bd d8f5 02bd f86d d9bd ec04 b0bd
00000200: f429 c93d ec8e 89bc ab1b 543d acef 0bbd
00000210: e079 afbd 368a 06be 5070 8a3d 6541 2dbd
00000220: 2276 183c b174 883c bfed 843d 3848 c03d
00000230: 2296 993d 6cd0 d83d a0e0 7a3c 2b03 9dbd
00000240: 3325 993d 433b cdbd 1061 a1bd 69c4 103d
00000250: e5af c73d 60b8 88bd 6839 903d a0e2 a43c
00000260: df1e f2bc d1e5 e2bc 88dd 5fbd 2759 d5bd
00000270: cad4 953d f441 053d 71e7 26bb 68e7 8f3d
00000280: ea16 d1bd 906b c43d d58e 273b ef70 6dbc
00000290: e8bb 973d 9b8e b2bd d897 f8bd 6477 7c3d
000002a0: 2819 983d 1878 153d f829 90bc 9c54 ecbd
000002b0: 2060 8cbc d4f1 c2bd 9051 fb3d 3151 10bd
000002c0: 8c5c 9f3d c05d 533d 75b5 d53d b038 80bc
000002d0: 609d b73c 3883 f1bd 6046 123d d89a c6bc
000002e0: 84e8 923d 0020 a93c ece8 dc3d c061 04bd
000002f0: 4461 6dbc 9cd6 f7bd d46b d2bd 49e6 0fbd
00000300: 00cf cf3a e3b2 fabb 9eda cf3c 265e 9e3d
00000310: 0043 78bc 0d0f 133d d005 b5bd 9514 b13d
00000320: 02b9 32bd 889a 0a3d 888b d03d 10d0 d03c
00000330: 96a3 0bbe b893 13bd 00b7 5a3b bd50 aebd
00000340: f124 efbc b81c 1abd c4b8 81bd 39d2 a4bd
00000350: 2e13 05be 8c3d fd3d d442 cabd 6896 64bd
00000360: bdcf babd bd78 c9bd 08ed 113d 3214 ecbd
00000370: 91ab 973d 8366 b93d 6919 0a3c 8381 3abd
00000380: 26b2 1f3d 744c a33d 6568 033c 5e31 05bd
00000390: fb7d b2bc 0f56 2e3b aa0a 1bbd f80a e8bd
000003a0: 40f9 803b 4dd3 a2bd 62c1 183d 8448 d73d
000003b0: d880 3f3d 08c4 45bd d846 cfbd fb99 1a3a
000003c0: 4eef ba3d e81a 273d 9aa9 8abd 0030 31ba
000003d0: d8de 0bbd d07e 8cbd 98b0 43bd 5532 7abd
000003e0: 0d30 a33d 0022 41bb a696 223d b28c 9cbd
000003f0: 5b1c b63d d813 3bbd caf9 ccbd 0499 dc3c
0.0031411648 -0.058977857 0.11650124 -0.056008607 -0.046053886 -0.09746288 0.11572519 0.07359898
0.024158211 -0.05995548 0.11381507 -0.020072967 -0.051732425 -0.10393858 0.122008234 -0.035524294
0.01036756 -0.10408848 0.10804483 -0.07667506 -0.13770321 -0.022378385 -0.021826029 0.033890516
0.0016822035 -0.07811684 0.10229209 0.07694144 0.038558193 -0.1265032 0.012397123 -0.03819016
0.09051887 -0.058566064 -0.10488597 0.043012656 -0.03225372 0.07054443 0.07443831 0.009156209
-0.092680424 0.044882875 0.032907065 -0.007854998 0.004485458 0.067077726 -0.010171771 -0.001389046
-0.11225168 -0.031169146 0.073242985 -0.015585095 0.04867664 -0.09433484 -0.0680508 0.057120517
0.051795483 0.047546595 -0.05477603 0.09548627 -0.073831305 0.08950713 -0.04399249 -0.060316496
0.03734687 -0.12952636 0.102258764 -0.048476066 0.06654793 0.05755205 0.035274595 -0.04962448
-0.08683628 -0.016087223 0.10137018 0.03940019 -0.030735089 -0.030767173 0.122203976 0.099737465
0.07637316 0.043353803 0.017968237 -0.044447485 -0.033852186 -0.00883162 0.0073081553 0.0074997246
0.06804164 -0.018495955 -0.06858435 -0.041663636 0.000760409 -0.020721376 -0.1061565 0.11041597
-0.048190046 0.085384846 0.0005661133 0.04110223 0.08818518 -0.050797988 -0.09872949 -0.014352785
-0.06238264 0.062014237 -0.13554928 0.02771467 -0.04497665 0.036511064 -0.010773689 -0.12285091
-0.06861907 0.052506924 0.003119894 -0.05946797 -0.01248607 0.015507638 -0.0016077161 0.024706908
0.062520966 0.0030302405 -0.06429317 0.03547465 -0.05091404 -0.031972736 -0.10616678 -0.08594689
0.09822455 -0.016791783 0.0517842 -0.034164116 -0.08568168 -0.13138661 0.06759703 -0.042298693
0.009305509 0.016657205 0.06490659 0.09388775 0.07499339 0.10586628 0.015312344 -0.0766662
0.07477798 -0.10021069 -0.07879841 0.03534356 0.09750346 -0.06675792 0.070421994 0.020127594
-0.029555736 -0.027697476 -0.054654628 -0.10417395 0.07315977 0.0325336 -0.002546754 0.07026559
-0.10209449 0.095908284 0.0025567312 -0.0144922575 0.07408887 -0.08718606 -0.12138337 0.061637297
0.07426673 0.036491483 -0.017598137 -0.115395755 -0.01713568 -0.09518781 0.12271416 -0.03523368
0.07781324 0.05160308 0.10435001 -0.01565203 0.02241391 -0.11792606 0.035711646 -0.024243757
0.07173255 0.020645142 0.10786614 -0.032319784 -0.014488522 -0.1210148 -0.10274473 -0.035131726
0.0015854537 -0.0076507195 0.0253728 0.07732801 -0.015152693 0.035903025 -0.08838999 0.08646504
-0.04363347 0.03383878 0.101828635 0.025489837 -0.13636622 -0.036029547 0.0033373237 -0.08511493
-0.02919242 -0.037625045 -0.06334069 -0.08047909 -0.12995598 0.12365255 -0.09876028 -0.0558075
-0.09121654 -0.09837482 0.03562644 -0.115272895 0.074057706 0.09052756 0.00842891 -0.04553367
0.038988255 0.07973567 0.008020495 -0.032517783 -0.021788588 0.0026601588 -0.037851967 -0.11330217
0.003935963 -0.07950459 0.0372938 0.10511878 0.046753734 -0.048282653 -0.10120934 0.00058975787
0.09127675 0.040797144 -0.0677063 -0.0006759167 -0.034148067 -0.06860125 -0.047775835 -0.061083157
0.07968149 -0.0029469728 0.03969445 -0.07644023 0.08892127 -0.04567322 -0.10008581 0.026928432

sequential/dense_2/MatMul f4 [1, 64]
00000000: e609 55bd 2e87 7abf beb7 55bd 7641 5abe
00000010: 760c 61be 2de7 823e 9c46 7d3e 9d3e 17be
00000020: 3376 233e 4353 cbbd a075 c53d 94fc 8ebd
00000030: 6791 a2bc 3eaf 4e3e 708b d93e 3657 febc
00000040: 03b2 dcbc e18c 39be e6c8 873e ac22 7bbe
00000050: 1d26 2dbe a668 f9bc 9a2d 45be 2584 2f3b
00000060: a904 7a3e 5aa1 213e 61ec 63bd a6bc 293d
00000070: d593 1cbf c2e6 0d3e 7666 0e3e 34f5 f4bd
00000080: c1c8 043e da94 adbc 8d39 53c0 8251 18be
00000090: 0b22 48be b731 6b3e 9d5f c5bd 41d8 bcbd
000000a0: 8642 ef3d 33ab 20be f610 54be fb04 9140
000000b0: fa98 ddbe 15d0 4cbe 6979 7ebd bfa6 25bf
000000c0: 3536 90bc b7a5 37bd f64e ce3e e484 293e
000000d0: 5baf 86bf 6eac 42be 5f7c 92bf 7b28 bbbb
000000e0: 342e 77be 9385 b6bd b6bd 403e bdd0 8c3e
000000f0: e59e 813e 4da9 9f3e b692 9e3f 2b3f 483c
-0.052011393 -0.9786252 -0.052177183 -0.21314034 -0.2197741 0.25566998 0.24733967 -0.14769979
0.15963058 -0.0992799 0.09641576 -0.06981769 -0.019844724 0.20184037 0.42489195 -0.031047445
-0.026940351 -0.18120147 0.2652046 -0.24524945 -0.1690907 -0.030445408 -0.19255677 0.0026781645
0.2441584 0.15784207 -0.05564535 0.041439675 -0.61163074 0.13857558 0.13906273 -0.11960831
0.12967207 -0.021189142 -3.3003876 -0.14874843 -0.19544236 0.22968183 -0.096373774 -0.09220935
0.1168261 -0.15690307 -0.20709595 4.531858 -0.43280774 -0.20001252 -0.062127504 -0.6470756
-0.017603973 -0.044835772 0.40294617 0.165546 -1.0522264 -0.19011089 -1.1444205 -0.0057116128
-0.24138719 -0.08912196 0.18822369 0.27503005 0.2531654 0.31183854 1.2388523 0.012222092
