FI101_AiPV8969/DT.tflite (tflite, 26520 bytes, 13 tensors)

unstack f4 [36]
0	0xbce898f8	-0.028393254
1	0x3d0d7c14	0.03454216
2	0x3d88d12a	0.0668052
3	0xbd0144d8	-0.031559795
4	0x3ba04743	0.0048913076
5	0xbc0f3b26	-0.008742129
6	0x3b63d841	0.0034766349
7	0x3bd98216	0.006637822
8	0x3d1195dc	0.035543308
9	0xbb58b493	-0.0033066615
10	0xbc1b522c	-0.0094800405
11	0x3daaf905	0.08348278
12	0x3c1043fe	0.008805273
13	0x3a8d329e	0.0010772531
14	0xbba12e4c	-0.004918849
15	0xbb48b6e7	-0.0030626596
16	0x3ae04494	0.0017110282
17	0xbc153250	-0.009106234
18	0x3cd32810	0.02577594
19	0xbc22da30	-0.009939715
20	0xbb42777c	-0.002967327
21	0xbb91fe19	-0.0044553396
22	0x3cb1184a	0.021618027
23	0xbc61f65a	-0.013791645
24	0x3a4bf609	0.00077804975
25	0xba040d02	-0.00050373387
26	0xb904a05f	-0.00012648244
27	0x38f259ec	0.000115562085
28	0xba03b851	-0.00050247187
29	0xbc5b2053	-0.013374406
30	0xb90815e1	-0.00012978121
31	0xba8828e2	-0.0010388161
32	0x3afe859f	0.0019418484
33	0xbc08a8ed	-0.008341056
34	0x3ad2584b	0.0016048042
35	0x39775728	0.00023588224

unstack1 f4 [36]
0	0xbce898f8	-0.028393254
1	0x3d0d7c14	0.03454216
2	0x3d88d12a	0.0668052
3	0xbd0144d8	-0.031559795
4	0x3ba04743	0.0048913076
5	0xbc0f3b26	-0.008742129
6	0x3b63d841	0.0034766349
7	0x3bd98216	0.006637822
8	0x3d1195dc	0.035543308
9	0xbb58b493	-0.0033066615
10	0xbc1b522c	-0.0094800405
11	0x3daaf905	0.08348278
12	0x3c1043fe	0.008805273
13	0x3a8d329e	0.0010772531
14	0xbba12e4c	-0.004918849
15	0xbb48b6e7	-0.0030626596
16	0x3ae04494	0.0017110282
17	0xbc153250	-0.009106234
18	0x3cd32810	0.02577594
19	0xbc22da30	-0.009939715
20	0xbb42777c	-0.002967327
21	0xbb91fe19	-0.0044553396
22	0x3cb1184a	0.021618027
23	0xbc61f65a	-0.013791645
24	0x3a49ff1b	0.0007705555
25	0x39d01b71	0.00039693297
26	0x3ab7be6c	0.0014018542
27	0x3a9dee9d	0.0012049262
28	0xba3540db	-0.0006914266
29	0xbc17ef8d	-0.009273422
30	0x39806d1e	0.0002449536
31	0xbaa8ffb9	-0.0012893594
32	0x3ae4ff75	0.0017471152
33	0xbbffa660	-0.007801816
34	0x3afb637f	0.0019179432
35	0x3ab1951b	0.0013548465

unstack2 f4 [72]
0	0x3ba6456b	0.0050741932
1	0x3c736ba7	0.014857209
2	0x3cc48424	0.02398879
3	0x3c7c3007	0.01539231
4	0x3c66409d	0.014053491
5	0x3b9d642b	0.0048032007
6	0x3c5dc7bd	0.013536391
7	0xbd195fba	-0.037444808
8	0x3bc6b68e	0.0060642427
9	0xbb5eafb3	-0.0033979237
10	0x3c176c9c	0.009242203
11	0x3c5c0416	0.013428709
12	0x3c3a8837	0.011385015
13	0x3cb608cc	0.022220992
14	0xbc4845ef	-0.012223705
15	0xbcd28e9c	-0.025702767
16	0x3d030be8	0.031993777
17	0xbcc7cc76	-0.024389487
18	0x3c07c536	0.008286765
19	0xbc2c703d	-0.010524807
20	0xbc219a4c	-0.009863447
21	0x3d026bce	0.03184109
22	0x3b121b63	0.0022294156
23	0x3ce3390f	0.027737169
24	0x3d35f0ff	0.044419285
25	0xbb9b8f09	-0.0047472757
26	0xbab59b31	-0.0013855455
27	0xbc41228d	-0.011788023
28	0x3dfb4aaf	0.12270104
29	0xbbf9aa46	-0.007619175
30	0x3c4e5e04	0.012595657
31	0xbde60d02	-0.1123295
32	0x3a267d91	0.00063511083
33	0xbbb04c32	-0.005380177
34	0xbae29236	-0.0017286006
35	0x3b5dabd1	0.0033824334
36	0x3ccf2987	0.025288356
37	0x3a2de4cc	0.00066335197
38	0x3c2d7d58	0.010588966
39	0xbc9fa447	-0.019487513
40	0xbc4a61c4	-0.012352411
41	0xbc45b7db	-0.01206776
42	0xbc87d5ab	-0.016581377
43	0x3ca33d38	0.019926652
44	0xbd40c01a	-0.047058202
45	0x3c065e34	0.008201171
46	0xbc6630bb	-0.014049704
47	0xbb96274a	-0.0045823203
48	0x3d486177	0.048921075
49	0xba73dec9	-0.0009302912
50	0x39d10df1	0.00039873974
51	0xbd1600a8	-0.03662172
52	0xbe0c24f3	-0.1368597
53	0x3cbcd874	0.023052432
54	0xb9de195f	-0.00042362043
55	0x3d737397	0.059436407
56	0xbb05d31f	-0.0020420027
57	0x3bf5c9f3	0.007500881
58	0xbad49c6d	-0.0016220935
59	0x3add8464	0.0016900417
60	0x3a8656fb	0.0010249311
61	0x3bdd819a	0.0067598345
62	0x3c219c33	0.009863901
63	0xbaffb0a2	-0.0019507597
64	0x3a793b2c	0.00095074135
65	0x3b53bc01	0.0032308104
66	0xbb0d5ab0	-0.0021568947
67	0xbc018fc5	-0.0079078125
68	0xbc10da8d	-0.008841169
69	0xbd23e7d6	-0.040016018
70	0x3b75d260	0.0037509426
71	0x3a3ce950	0.0007206397

unstack3 f4 [72]
0	0x3ba6456b	0.0050741932
1	0x3c736ba7	0.014857209
2	0x3cc48424	0.02398879
3	0x3c7c3007	0.01539231
4	0x3c66409d	0.014053491
5	0x3b9d642b	0.0048032007
6	0x3c5dc7bd	0.013536391
7	0xbd195fba	-0.037444808
8	0x3bc6b68e	0.0060642427
9	0xbb5eafb3	-0.0033979237
10	0x3c176c9c	0.009242203
11	0x3c5c0416	0.013428709
12	0x3c3a8837	0.011385015
13	0x3cb608cc	0.022220992
14	0xbc4845ef	-0.012223705
15	0xbcd28e9c	-0.025702767
16	0x3d030be8	0.031993777
17	0xbcc7cc76	-0.024389487
18	0x3c07c536	0.008286765
19	0xbc2c703d	-0.010524807
20	0xbc219a4c	-0.009863447
21	0x3d026bce	0.03184109
22	0x3b121b63	0.0022294156
23	0x3ce3390f	0.027737169
24	0x3d35f0ff	0.044419285
25	0xbb9b8f09	-0.0047472757
26	0xbab59b31	-0.0013855455
27	0xbc41228d	-0.011788023
28	0x3dfb4aaf	0.12270104
29	0xbbf9aa46	-0.007619175
30	0x3c4e5e04	0.012595657
31	0xbde60d02	-0.1123295
32	0x3a267d91	0.00063511083
33	0xbbb04c32	-0.005380177
34	0xbae29236	-0.0017286006
35	0x3b5dabd1	0.0033824334
36	0x3ccf2987	0.025288356
37	0x3a2de4cc	0.00066335197
38	0x3c2d7d58	0.010588966
39	0xbc9fa447	-0.019487513
40	0xbc4a61c4	-0.012352411
41	0xbc45b7db	-0.01206776
42	0xbc87d5ab	-0.016581377
43	0x3ca33d38	0.019926652
44	0xbd40c01a	-0.047058202
45	0x3c065e34	0.008201171
46	0xbc6630bb	-0.014049704
47	0xbb96274a	-0.0045823203
48	0x3d52d50d	0.051472712
49	0xba834e66	-0.0010017871
50	0x3ac53749	0.0015046383
51	0xbcbd3b06	-0.023099434
52	0xbe13a701	-0.14419176
53	0x3c93bf59	0.018035578
54	0xbb1d2b95	-0.0023982276
55	0x3d2da866	0.042396925
56	0xbb8b723e	-0.004255562
57	0x3bf2a7e1	0.0074052666
58	0xbaba5bce	-0.0014218034
59	0x3b83d69f	0.0040233876
60	0x397e1fc8	0.00024235167
61	0x3b9a9642	0.004717619
62	0x3c2219e1	0.009893865
63	0xbb591d26	-0.0033128946
64	0x3a1c269f	0.0005956683
65	0x3b50170b	0.0031752016
66	0xba30dd55	-0.0006746848
67	0xbba8f819	-0.0051565287
68	0xbc18eb1f	-0.009333401
69	0xbd24a469	-0.040195856
70	0x3ba90802	0.0051584253
71	0x3a6b2730	0.0008970378

sequential/dense/MatMul f4 [1, 12]
0	0x3eb1a474	0.3469578
1	0xbea767ad	-0.32696286
2	0x3f1bcf8e	0.6086358
3	0xbe405fdb	-0.18786566
4	0xbf07444b	-0.5283858
5	0xbd6b2ec9	-0.057417665
6	0x3f14a740	0.58067703
7	0xbde582d0	-0.11206591
8	0x3e13981e	0.14413497
9	0xbd27a477	-0.04092833
10	0x3ec9dbf2	0.39425617
11	0xbf1b4110	-0.6064615

unstack4 f4 [72]
0	0x3ba6456b	0.0050741932
1	0x3c736ba7	0.014857209
2	0x3cc48424	0.02398879
3	0x3c7c3007	0.01539231
4	0x3c66409d	0.014053491
5	0x3b9d642b	0.0048032007
6	0x3c5dc7bd	0.013536391
7	0xbd195fba	-0.037444808
8	0x3bc6b68e	0.0060642427
9	0xbb5eafb3	-0.0033979237
10	0x3c176c9c	0.009242203
11	0x3c5c0416	0.013428709
12	0x3c3a8837	0.011385015
13	0x3cb608cc	0.022220992
14	0xbc4845ef	-0.012223705
15	0xbcd28e9c	-0.025702767
16	0x3d030be8	0.031993777
17	0xbcc7cc76	-0.024389487
18	0x3c07c536	0.008286765
19	0xbc2c703d	-0.010524807
20	0xbc219a4c	-0.009863447
21	0x3d026bce	0.03184109
22	0x3b121b63	0.0022294156
23	0x3ce3390f	0.027737169
24	0x3d35f0ff	0.044419285
25	0xbb9b8f09	-0.0047472757
26	0xbab59b31	-0.0013855455
27	0xbc41228d	-0.011788023
28	0x3dfb4aaf	0.12270104
29	0xbbf9aa46	-0.007619175
30	0x3c4e5e04	0.012595657
31	0xbde60d02	-0.1123295
32	0x3a267d91	0.00063511083
33	0xbbb04c32	-0.005380177
34	0xbae29236	-0.0017286006
35	0x3b5dabd1	0.0033824334
36	0x3ccf2987	0.025288356
37	0x3a2de4cc	0.00066335197
38	0x3c2d7d58	0.010588966
39	0xbc9fa447	-0.019487513
40	0xbc4a61c4	-0.012352411
41	0xbc45b7db	-0.01206776
42	0xbc87d5ab	-0.016581377
43	0x3ca33d38	0.019926652
44	0xbd40c01a	-0.047058202
45	0x3c065e34	0.008201171
46	0xbc6630bb	-0.014049704
47	0xbb96274a	-0.0045823203
48	0x3d486177	0.048921075
49	0xba73dec9	-0.0009302912
50	0x39d10df1	0.00039873974
51	0xbd1600a8	-0.03662172
52	0xbe0c24f3	-0.1368597
53	0x3cbcd874	0.023052432
54	0xb9de195f	-0.00042362043
55	0x3d737397	0.059436407
56	0xbb05d31f	-0.0020420027
57	0x3bf5c9f3	0.007500881
58	0xbad49c6d	-0.0016220935
59	0x3add8464	0.0016900417
60	0x3a8656fb	0.0010249311
61	0x3bdd819a	0.0067598345
62	0x3c219c33	0.009863901
63	0xbaffb0a2	-0.0019507597
64	0x3a793b2c	0.00095074135
65	0x3b53bc01	0.0032308104
66	0xbb0d5ab0	-0.0021568947
67	0xbc018fc5	-0.0079078125
68	0xbc10da8d	-0.008841169
69	0xbd23e7d6	-0.040016018
70	0x3b75d260	0.0037509426
71	0x3a3ce950	0.0007206397

unstack5 f4 [72]
0	0x3ba6456b	0.0050741932
1	0x3c736ba7	0.014857209
2	0x3cc48424	0.02398879
3	0x3c7c3007	0.01539231
4	0x3c66409d	0.014053491
5	0x3b9d642b	0.0048032007
6	0x3c5dc7bd	0.013536391
7	0xbd195fba	-0.037444808
8	0x3bc6b68e	0.0060642427
9	0xbb5eafb3	-0.0033979237
10	0x3c176c9c	0.009242203
11	0x3c5c0416	0.013428709
12	0x3c3a8837	0.011385015
13	0x3cb608cc	0.022220992
14	0xbc4845ef	-0.012223705
15	0xbcd28e9c	-0.025702767
16	0x3d030be8	0.031993777
17	0xbcc7cc76	-0.024389487
18	0x3c07c536	0.008286765
19	0xbc2c703d	-0.010524807
20	0xbc219a4c	-0.009863447
21	0x3d026bce	0.03184109
22	0x3b121b63	0.0022294156
23	0x3ce3390f	0.027737169
24	0x3d35f0ff	0.044419285
25	0xbb9b8f09	-0.0047472757
26	0xbab59b31	-0.0013855455
27	0xbc41228d	-0.011788023
28	0x3dfb4aaf	0.12270104
29	0xbbf9aa46	-0.007619175
30	0x3c4e5e04	0.012595657
31	0xbde60d02	-0.1123295
32	0x3a267d91	0.00063511083
33	0xbbb04c32	-0.005380177
34	0xbae29236	-0.0017286006
35	0x3b5dabd1	0.0033824334
36	0x3ccf2987	0.025288356
37	0x3a2de4cc	0.00066335197
38	0x3c2d7d58	0.010588966
39	0xbc9fa447	-0.019487513
40	0xbc4a61c4	-0.012352411
41	0xbc45b7db	-0.01206776
42	0xbc87d5ab	-0.016581377
43	0x3ca33d38	0.019926652
44	0xbd40c01a	-0.047058202
45	0x3c065e34	0.008201171
46	0xbc6630bb	-0.014049704
47	0xbb96274a	-0.0045823203
48	0x3d52d50d	0.051472712
49	0xba834e66	-0.0010017871
50	0x3ac53749	0.0015046383
51	0xbcbd3b06	-0.023099434
52	0xbe13a701	-0.14419176
53	0x3c93bf59	0.018035578
54	0xbb1d2b95	-0.0023982276
55	0x3d2da866	0.042396925
56	0xbb8b723e	-0.004255562
57	0x3bf2a7e1	0.0074052666
58	0xbaba5bce	-0.0014218034
59	0x3b83d69f	0.0040233876
60	0x397e1fc8	0.00024235167
61	0x3b9a9642	0.004717619
62	0x3c2219e1	0.009893865
63	0xbb591d26	-0.0033128946
64	0x3a1c269f	0.0005956683
65	0x3b50170b	0.0031752016
66	0xba30dd55	-0.0006746848
67	0xbba8f819	-0.0051565287
68	0xbc18eb1f	-0.009333401
69	0xbd24a469	-0.040195856
70	0x3ba90802	0.0051584253
71	0x3a6b2730	0.0008970378

while/MatMul f4 [72, 4]
0	0xbd51461d	-0.051092256
1	0xbe0db95a	-0.13840237
2	0xbd0ed80f	-0.03487402
3	0x3e4db9c6	0.20090398
4	0x3e322377	0.17396341
5	0xbd37da90	-0.04488617
6	0x3db47ba7	0.08812647
7	0x3e58734c	0.21137732
8	0x3e8d272d	0.2756895
9	0x3e162b7e	0.14665028
10	0x3e4a460b	0.19753282
11	0x3e39ef60	0.1815772
12	0xbe751ad2	-0.23936012
13	0x3e5b526e	0.21418163
14	0x3e1db8c0	0.15402508
15	0xbea08f51	-0.31359342
16	0xbe88ccf9	-0.26718882
17	0xbe6bf578	-0.23042858
18	0x3db39496	0.08768575
19	0x3de88ba2	0.11354758
20	0x3a6487e1	0.00087177573
21	0xbe2f83fd	-0.17140193
22	0x3df2446b	0.11829456
23	0x3e422411	0.1895907
24	0x3a857327	0.0010181413
25	0xbcee5cf1	-0.029097052
26	0x3e005a11	0.12534358
27	0x3da3c7bc	0.07997081
28	0xbd815859	-0.06315679
29	0x3d3e1a5c	0.046411857
30	0x3da5450c	0.0806981
31	0x3d8bc329	0.06824333
32	0xbe19a4dd	-0.15004297
33	0x3e5c1ede	0.2149615
34	0x3daff194	0.08590999
35	0xbe2d01b1	-0.16895176
36	0xbcb0843d	-0.021547431
37	0xbe05500d	-0.13018818
38	0x3da13b77	0.0787267
39	0x3c8fcc2a	0.017553408
40	0xbde563f5	-0.11200706
41	0xbe1ad2e2	-0.15119508
42	0x3ddbcf90	0.10732949
43	0xbe8fb7e7	-0.28069994
44	0xbdc08e86	-0.09402184
45	0xbe3f6588	-0.18691075
46	0x3dee03a7	0.116217904
47	0x3dcc1825	0.09965543
48	0x3e5409d2	0.20706871
49	0xbdbdf50f	-0.09275257
50	0x3e70c7cc	0.23513716
51	0xbe876f40	-0.26452065
52	0x3a900fb4	0.0010991008
53	0x3e8b955f	0.272624
54	0x3e484030	0.19555736
55	0x3e022788	0.12710392
56	0x3e2b56aa	0.16732278
57	0x3e5d20e5	0.2159458
58	0x3d2b45f8	0.041814774
59	0x3e25869a	0.16164628
60	0xbd0ce30d	-0.03439622
61	0xbd8b1c9c	-0.06792566
62	0xbe756e2f	-0.23967813
63	0xbe69987d	-0.22812076
64	0xbe203adb	-0.15647452
65	0x3e62f34a	0.2216312
66	0x3e8f711a	0.28015977
67	0x3cd3653c	0.025805108
68	0x3e09c6e8	0.13454783
69	0xbea1338a	-0.31484634
70	0x3dc0ac96	0.09407918
71	0xbe8580c0	-0.2607479
72	0xbd9f4393	-0.07776561
73	0x3e9bba2c	0.30415475
74	0x3e2cae90	0.16863465
75	0xbdb0facf	-0.08641588
76	0x3dc90822	0.09816004
77	0x3d5ecdb1	0.05439538
78	0xbe1d6304	-0.15369803
79	0x3de94e98	0.11391944
80	0x3e1debcb	0.15421979
81	0x3d490bc5	0.04908349
82	0xbe9001e3	-0.2812644
83	0x3e546cd0	0.20744634
84	0x3e828d76	0.2549855
85	0x3dde622e	0.1085857
86	0xbdf89238	-0.12137264
87	0xbeb42781	-0.3518639
88	0x3dd2184e	0.10258542
89	0x3e081042	0.13287452
90	0xbe90f2ab	-0.2831014
91	0xbe4cec3e	-0.20011994
92	0x3e8e3b3b	0.27779564
93	0x3e2d0ade	0.16898677
94	0x3e5048d7	0.20340286
95	0x3d0b5de2	0.03402508
96	0xbea151f3	-0.31507835
97	0x3e3715de	0.17879435
98	0xbd30852f	-0.043095764
99	0xbd761976	-0.060082875
100	0x3bbec03e	0.005821257
101	0xbe8a1726	-0.26970786
102	0xbe7ceda9	-0.24700035
103	0x3da705cf	0.08155405
104	0xbd12cd41	-0.035840277
105	0x3d345431	0.044025604
106	0x3c859d64	0.016310401
107	0x3e164fec	0.14678925
108	0xbd66ad78	-0.056317776
109	0x3d85746a	0.06516345
110	0xbe1de448	-0.15419114
111	0x3d55e73b	0.05222247
112	0x3de035de	0.10947774
113	0x3d1f1617	0.038839426
114	0x3e45e611	0.19326045
115	0xbc95b31c	-0.018273883
116	0x3e8ba01f	0.272706
117	0xbebc613c	-0.36792934
118	0xbd60c5a7	-0.054875996
119	0x3dfed729	0.12443382
120	0x3d8a7b2a	0.06761773
121	0x3e774243	0.2414637
122	0xbd814f8b	-0.06314
123	0x3e091fec	0.13391083
124	0x3f0d664a	0.55234206
125	0x3e4519fa	0.1924819
126	0x3f025819	0.50915676
127	0xbc4fcd8d	-0.0126832845
128	0xbe64c822	-0.2234197
129	0xbdd782fe	-0.10523032
130	0xbd92ad47	-0.07161956
131	0x3e847313	0.25869045
132	0xbd9757cf	-0.07389795
133	0xbe8deb25	-0.27718464
134	0x3b8ab8f1	0.0042334725
135	0x3dfa6c64	0.12227705
136	0xbcbcfc93	-0.023069656
137	0xba2d6fb7	-0.0006616073
138	0xbd1baef3	-0.03800864
139	0x3e53138a	0.20612922
140	0x3c7a997e	0.015295384
141	0x3e117160	0.14203405
142	0xbe716194	-0.2357238
143	0xbe3cf22b	-0.18451755
144	0xbe869f5c	-0.26293457
145	0x3e0fb31c	0.14033169
146	0xbc7be166	-0.015373563
147	0x3d5e88d7	0.05432972
148	0xbc67eca6	-0.0141555425
149	0xbd8ff89c	-0.0702984
150	0x3e84442e	0.25833267
151	0xbe6b4097	-0.22973858
152	0xbc0c5473	-0.008565056
153	0x3e6bfe73	0.23046283
154	0x3db37142	0.087618366
155	0xbd963b39	-0.073355146
156	0xbe504470	-0.20338607
157	0x3d1f4e81	0.038893227
158	0x3d275769	0.040854845
159	0xbe56fa9f	-0.20994042
160	0x3e22fb84	0.15916258
161	0x3de3f211	0.11130155
162	0xbe966990	-0.29377413
163	0xbd870875	-0.0659341
164	0x3e53a01b	0.20666544
165	0x3e600d4a	0.2188007
166	0xbe2910c5	-0.16510303
167	0x3e3ab9b9	0.1823491
168	0x3e0b2a8a	0.13590446
169	0xbeaccb2d	-0.3374876
170	0xbe6a89c9	-0.22904123
171	0x3e56c0e5	0.20972021
172	0xbdebf11a	-0.11520596
173	0xbe3efe9a	-0.1865181
174	0x3da9ed09	0.08297164
175	0x3e94d9aa	0.29072315
176	0x3e51f356	0.20502982
177	0x3df95f20	0.12176347
178	0x3e54461a	0.20729867
179	0xbdb459c6	-0.088061854
180	0x3db8e72b	0.09028467
181	0x3e56385c	0.20919937
182	0xbe2a8d02	-0.16655353
183	0x3e85b601	0.2611542
184	0xbe0e27c3	-0.13882355
185	0x3e12ce53	0.14336519
186	0x3c47f2da	0.012203896
187	0xbe405479	-0.18782224
188	0xbe5f513e	-0.21808335
189	0xbe66881a	-0.22512856
190	0x3e8530b3	0.26013717
191	0xbe1703c7	-0.14747535
192	0xbe98f16e	-0.29871696
193	0x3e2a501d	0.16632123
194	0xbe5466c7	-0.20742331
195	0xbdb85ab1	-0.09001673
196	0x3bc5be20	0.0060346276
197	0x3bed982b	0.007250806
198	0xbe2ce272	-0.16883257
199	0xbd1c807e	-0.038208477
200	0xbdf7799d	-0.12083743
201	0xbe8d72c6	-0.27626628
202	0x3cc9facc	0.024655722
203	0xbdfcdec7	-0.12347179
204	0xbde125cf	-0.109935395
205	0x3e76a85a	0.24087659
206	0x3dd0affa	0.10189815
207	0xbdb8a8b2	-0.09016551
208	0x3ec2a12c	0.3801359
209	0x3e391223	0.18073325
210	0xbcf57512	-0.02996305
211	0xbe464202	-0.19361117
212	0x3d108663	0.03528441
213	0xbe498417	-0.19679295
214	0x3dabc3da	0.08386965
215	0xbd74e830	-0.059791744
216	0x3c281db7	0.010260991
217	0x3d4d12be	0.050066702
218	0xbe5b0ca0	-0.21391535
219	0xbe5b5b99	-0.2142166
220	0xbd9c8eef	-0.0764445
221	0x3e65fbe7	0.22459374
222	0x3e36ae14	0.17839843
223	0x3cc339fb	0.023831358
224	0x3e4189af	0.18900178
225	0x3deb1291	0.11478151
226	0x3e060701	0.1308861
227	0xbdcf8ed1	-0.10134662
228	0xbe4a1efb	-0.1973838
229	0xbe822258	-0.25416827
230	0x3e88b09d	0.26697245
231	0xbe7dfa72	-0.24802569
232	0x3ac73438	0.0015198058
233	0x3e19ac0e	0.1500704
234	0x3d39662c	0.045263454
235	0xbdde78e9	-0.108629055
236	0x3caf1c4e	0.021375801
237	0xbe38c6e8	-0.18044627
238	0xbdf36805	-0.118850745
239	0x3e6b81c5	0.22998722
240	0x3ddce740	0.10786295
241	0x3d983621	0.07432199
242	0xbe362096	-0.17785868
243	0xbd955660	-0.07291865
244	0xbe7fe056	-0.24987921
245	0x3da9c1b0	0.08288896
246	0xbe11aba3	-0.1422563
247	0xbe34091c	-0.175816
248	0xbe46def5	-0.19420989
249	0xbe141021	-0.14459278
250	0xbe2db401	-0.16963197
251	0xbe57e55c	-0.21083587
252	0x3e3392a9	0.17536415
253	0xbe76d623	-0.24105124
254	0xbe42ca16	-0.19022402
255	0x3e8d3b6b	0.27584395

while/MatMul_1 i1 [72, 24] scale=0.0033684734 zero_point=0
0	0xf3	-0.043790154
1	0xf5	-0.03705321
2	0xc9	-0.18526603
3	0xe4	-0.09431726
4	0x0d	0.043790154
5	0xf6	-0.033684734
6	0xfd	-0.01010542
7	0x38	0.18863451
8	0xee	-0.06063252
9	0x00	0.0
10	0xd1	-0.15831825
11	0xfc	-0.0134738935
12	0x06	0.02021084
13	0xb4	-0.25600398
14	0x23	0.11789657
15	0x00	0.0
16	0x0b	0.03705321
17	0xf9	-0.023579314
18	0xe6	-0.08758031
19	0x99	-0.34695277
20	0x1d	0.097685724
21	0xf1	-0.0505271
22	0xfb	-0.016842367
23	0xf1	-0.0505271
24	0xf3	-0.043790154
25	0x89	-0.40084833
26	0x01	0.0033684734
27	0x21	0.11115962
28	0xfe	-0.0067369468
29	0xe2	-0.1010542
30	0x0e	0.04715863
31	0xd8	-0.13473894
32	0xe0	-0.10779115
33	0xf0	-0.053895574
34	0x03	0.01010542
35	0x32	0.16842367
36	0x13	0.064000994
37	0x03	0.01010542
38	0x08	0.026947787
39	0xa9	-0.29305717
40	0xcd	-0.17179215
41	0x3a	0.19537145
42	0x08	0.026947787
43	0xf7	-0.03031626
44	0xf9	-0.023579314
45	0x5f	0.32000497
46	0xf6	-0.033684734
47	0xf3	-0.043790154
48	0xf9	-0.023579314
49	0x32	0.16842367
50	0x21	0.11115962
51	0x1a	0.08758031
52	0xd8	-0.13473894
53	0xeb	-0.07073794
54	0xdc	-0.12126504
55	0xca	-0.18189757
56	0x0c	0.04042168
57	0xe8	-0.08084336
58	0xda	-0.12800199
59	0xd6	-0.14147589
60	0xf0	-0.053895574
61	0x13	0.064000994
62	0x03	0.01010542
63	0x4b	0.2526355
64	0xdc	-0.12126504
65	0xf6	-0.033684734
66	0x45	0.23242466
67	0x04	0.0134738935
68	0x0e	0.04715863
69	0x4d	0.25937244
70	0x21	0.11115962
71	0xca	-0.18189757
72	0xf1	-0.0505271
73	0xdb	-0.12463351
74	0x33	0.17179215
75	0x04	0.0134738935
76	0x0a	0.033684734
77	0xe8	-0.08084336
78	0xb8	-0.24253008
79	0xc0	-0.2155823
80	0x0d	0.043790154
81	0x44	0.2290562
82	0x30	0.16168672
83	0xe6	-0.08758031
84	0x05	0.016842367
85	0xe6	-0.08758031
86	0xb0	-0.26947787
87	0xfa	-0.02021084
88	0x14	0.06736947
89	0x09	0.03031626
90	0x22	0.1145281
91	0x08	0.026947787
92	0x1a	0.08758031
93	0xc6	-0.19537145
94	0xf6	-0.033684734
95	0xf1	-0.0505271
96	0x4b	0.2526355
97	0x10	0.053895574
98	0x59	0.29979414
99	0x4f	0.2661094
100	0xbf	-0.21895076
101	0xfe	-0.0067369468
102	0x1a	0.08758031
103	0x52	0.2762148
104	0xcd	-0.17179215
105	0x46	0.23579314
106	0xd0	-0.16168672
107	0x1b	0.09094878
108	0xf7	-0.03031626
109	0x3e	0.20884535
110	0x3a	0.19537145
111	0x15	0.07073794
112	0x22	0.1145281
113	0x1e	0.1010542
114	0x01	0.0033684734
115	0xd2	-0.15494977
116	0xe3	-0.097685724
117	0x41	0.21895076
118	0x11	0.05726405
119	0xfb	-0.016842367
120	0x10	0.053895574
121	0xdf	-0.11115962
122	0x00	0.0
123	0x34	0.17516062
124	0x19	0.084211834
125	0xfd	-0.01010542
126	0x1f	0.10442267
127	0x29	0.1381074
128	0xbf	-0.21895076
129	0xd3	-0.1515813
130	0x20	0.10779115
131	0xa2	-0.3166365
132	0x11	0.05726405
133	0x01	0.0033684734
134	0x08	0.026947787
135	0xe8	-0.08084336
136	0x04	0.0134738935
137	0xf9	-0.023579314
138	0x10	0.053895574
139	0xf0	-0.053895574
140	0x15	0.07073794
141	0xf8	-0.026947787
142	0xf5	-0.03705321
143	0xcd	-0.17179215
144	0x17	0.077474885
145	0x2e	0.15494977
146	0xc0	-0.2155823
147	0xde	-0.1145281
148	0xf2	-0.04715863
149	0xff	-0.0033684734
150	0xfa	-0.02021084
151	0xeb	-0.07073794
152	0x1f	0.10442267
153	0x01	0.0033684734
154	0xe2	-0.1010542
155	0xff	-0.0033684734
156	0x0e	0.04715863
157	0x06	0.02021084
158	0x0d	0.043790154
159	0xda	-0.12800199
160	0xfd	-0.01010542
161	0x16	0.07410642
162	0x1c	0.09431726
163	0x08	0.026947787
164	0x12	0.06063252
165	0x02	0.0067369468
166	0x21	0.11115962
167	0xe5	-0.09094878
168	0x3a	0.19537145
169	0x1a	0.08758031
170	0xdd	-0.11789657
171	0x26	0.12800199
172	0x9a	-0.3435843
173	0x1b	0.09094878
174	0x2e	0.15494977
175	0xdc	-0.12126504
176	0x92	-0.37053207
177	0x39	0.19200298
178	0xf2	-0.04715863
179	0xf4	-0.04042168
180	0x2b	0.14484435
181	0x67	0.34695277
182	0xf7	-0.03031626
183	0xc2	-0.20884535
184	0x39	0.19200298
185	0x24	0.12126504
186	0xe5	-0.09094878
187	0x96	-0.35705817
188	0xd4	-0.14821284
189	0xd3	-0.1515813
190	0x2d	0.1515813
191	0xcc	-0.17516062
192	0xdf	-0.11115962
193	0xed	-0.064000994
194	0xea	-0.07410642
195	0x10	0.053895574
196	0x07	0.023579314
197	0x25	0.12463351
198	0xc1	-0.21221383
199	0x37	0.18526603
200	0x0c	0.04042168
201	0x0c	0.04042168
202	0xee	-0.06063252
203	0x22	0.1145281
204	0xdf	-0.11115962
205	0xee	-0.06063252
206	0xeb	-0.07073794
207	0xdd	-0.11789657
208	0xcf	-0.1650552
209	0xcf	-0.1650552
210	0x42	0.22231925
211	0x23	0.11789657
212	0x2d	0.1515813
213	0x26	0.12800199
214	0x1d	0.097685724
215	0xcc	-0.17516062
216	0xbe	-0.22231925
217	0xfc	-0.0134738935
218	0x2b	0.14484435
219	0xf6	-0.033684734
220	0x0c	0.04042168
221	0x1a	0.08758031
222	0x09	0.03031626
223	0x12	0.06063252
224	0x1f	0.10442267
225	0x0e	0.04715863
226	0xce	-0.16842367
227	0x00	0.0
228	0x0b	0.03705321
229	0xe4	-0.09431726
230	0xff	-0.0033684734
231	0xf3	-0.043790154
232	0x2b	0.14484435
233	0x06	0.02021084
234	0x23	0.11789657
235	0xcc	-0.17516062
236	0xaa	-0.2896887
237	0xf8	-0.026947787
238	0x37	0.18526603
239	0xf3	-0.043790154
240	0xf3	-0.043790154
241	0x62	0.3301104
242	0xca	-0.18189757
243	0xd0	-0.16168672
244	0x0b	0.03705321
245	0xdf	-0.11115962
246	0x3b	0.19873993
247	0x1c	0.09431726
248	0x9f	-0.3267419
249	0xf6	-0.033684734
250	0x3f	0.21221383
251	0x11	0.05726405
252	0x15	0.07073794
253	0x01	0.0033684734
254	0xc2	-0.20884535
255	0xe6	-0.08758031

unstack6 f4 [36]
0	0xbce898f8	-0.028393254
1	0x3d0d7c14	0.03454216
2	0x3d88d12a	0.0668052
3	0xbd0144d8	-0.031559795
4	0x3ba04743	0.0048913076
5	0xbc0f3b26	-0.008742129
6	0x3b63d841	0.0034766349
7	0x3bd98216	0.006637822
8	0x3d1195dc	0.035543308
9	0xbb58b493	-0.0033066615
10	0xbc1b522c	-0.0094800405
11	0x3daaf905	0.08348278
12	0x3c1043fe	0.008805273
13	0x3a8d329e	0.0010772531
14	0xbba12e4c	-0.004918849
15	0xbb48b6e7	-0.0030626596
16	0x3ae04494	0.0017110282
17	0xbc153250	-0.009106234
18	0x3cd32810	0.02577594
19	0xbc22da30	-0.009939715
20	0xbb42777c	-0.002967327
21	0xbb91fe19	-0.0044553396
22	0x3cb1184a	0.021618027
23	0xbc61f65a	-0.013791645
24	0x3a4bf609	0.00077804975
25	0xba040d02	-0.00050373387
26	0xb904a05f	-0.00012648244
27	0x38f259ec	0.000115562085
28	0xba03b851	-0.00050247187
29	0xbc5b2053	-0.013374406
30	0xb90815e1	-0.00012978121
31	0xba8828e2	-0.0010388161
32	0x3afe859f	0.0019418484
33	0xbc08a8ed	-0.008341056
34	0x3ad2584b	0.0016048042
35	0x39775728	0.00023588224

unstack7 f4 [36]
0	0xbce898f8	-0.028393254
1	0x3d0d7c14	0.03454216
2	0x3d88d12a	0.0668052
3	0xbd0144d8	-0.031559795
4	0x3ba04743	0.0048913076
5	0xbc0f3b26	-0.008742129
6	0x3b63d841	0.0034766349
7	0x3bd98216	0.006637822
8	0x3d1195dc	0.035543308
9	0xbb58b493	-0.0033066615
10	0xbc1b522c	-0.0094800405
11	0x3daaf905	0.08348278
12	0x3c1043fe	0.008805273
13	0x3a8d329e	0.0010772531
14	0xbba12e4c	-0.004918849
15	0xbb48b6e7	-0.0030626596
16	0x3ae04494	0.0017110282
17	0xbc153250	-0.009106234
18	0x3cd32810	0.02577594
19	0xbc22da30	-0.009939715
20	0xbb42777c	-0.002967327
21	0xbb91fe19	-0.0044553396
22	0x3cb1184a	0.021618027
23	0xbc61f65a	-0.013791645
24	0x3a49ff1b	0.0007705555
25	0x39d01b71	0.00039693297
26	0x3ab7be6c	0.0014018542
27	0x3a9dee9d	0.0012049262
28	0xba3540db	-0.0006914266
29	0xbc17ef8d	-0.009273422
30	0x39806d1e	0.0002449536
31	0xbaa8ffb9	-0.0012893594
32	0x3ae4ff75	0.0017471152
33	0xbbffa660	-0.007801816
34	0x3afb637f	0.0019179432
35	0x3ab1951b	0.0013548465

while/MatMul_11 f4 [36, 12]
0	0xbc9a26e3	-0.01881737
1	0x3d3ec9bd	0.04657911
2	0x3e22304b	0.15838735
3	0xbe44509d	-0.19171377
4	0xbd956672	-0.072949305
5	0xbed7da33	-0.4215866
6	0x3ec04687	0.37553808
7	0xbe87d4dc	-0.26529586
8	0xbcc9546d	-0.02457639
9	0x3cce1d76	0.025160532
10	0x3d444ae9	0.047923002
11	0xbdc0d55f	-0.09415697
12	0xbdf4c129	-0.11950905
13	0x3e6009b3	0.218787
14	0x3de87f15	0.11352364
15	0x3cae4f17	0.021277947
16	0x3bba6477	0.005688246
17	0x3d40187c	0.04689835
18	0x3db06cca	0.086145
19	0x3d58b246	0.05290439
20	0x3d607c13	0.054805826
21	0x3e5d7564	0.21626812
22	0x3de730fc	0.1128864
23	0x3d672b71	0.056437913
24	0xbdc88d52	-0.0979258
25	0xbe29111e	-0.16510436
26	0x3eb8d173	0.36097297
27	0xbdc7980d	-0.09745798
28	0xbe395958	-0.18100488
29	0x3c05f5cf	0.008176281
30	0xbd81ede2	-0.06344201
31	0xbe059abd	-0.13047309
32	0x3d8e09b1	0.06935442
33	0xbe0e2634	-0.13881761
34	0xbd25ae92	-0.040449686
35	0x3dfdf90f	0.1240102
36	0x3e4695a0	0.19393015
37	0xbe1938f2	-0.14963129
38	0xbe02da45	-0.12778576
39	0xbd8c9cb7	-0.068658285
40	0xbdf915d1	-0.12162364
41	0xbd5b9c0b	-0.05361561
42	0xbdb4bde2	-0.0882528
43	0x3d7f4209	0.062318835
44	0x3cb22eef	0.021750895
45	0xbe645a38	-0.2230004
46	0x3ea54df1	0.32286027
47	0x3e59bb6e	0.21262905
48	0x3e2b9286	0.16755113
49	0x3e4efd3f	0.20213793
50	0xbd576299	-0.052584264
51	0x3d9f337a	0.0777349
52	0xbe45e215	-0.19324525
53	0x3e84489c	0.25836647
54	0x3c1b3952	0.009474115
55	0x3e21aa7a	0.15787688
56	0xbe3af9e2	-0.18259385
57	0xbe014da3	-0.12627272
58	0xbd87b170	-0.066256404
59	0xbed4b399	-0.41543272
60	0xbdb9f270	-0.090794444
61	0xbddcd955	-0.1078364
62	0xbda9a402	-0.08283235
63	0x3c07a1ae	0.008278294
64	0x3e91ca88	0.28474832
65	0xbe8bd89f	-0.27313706
66	0xbc2326ae	-0.009957952
67	0xbe7addf1	-0.24498726
68	0x3e5005be	0.2031469
69	0x3eb5615e	0.35425848
70	0x3e881b9d	0.26583567
71	0xbeac7443	-0.3368245
72	0x3ecae875	0.39630476
73	0xbd87a1a4	-0.066226274
74	0x3c18de66	0.009330368
75	0xbe143072	-0.14471605
76	0xbe24380f	-0.1603701
77	0x3d8839e7	0.06651669
78	0x3c9d955b	0.019236257
79	0xbbc0bf1f	-0.0058821584
80	0xbe110b7f	-0.14164542
81	0x3e45acac	0.1930415
82	0x3d8bc25d	0.06824181
83	0x3e178be1	0.14799453
84	0xbe26ca1b	-0.16288035
85	0xbe7a4b8d	-0.24442883
86	0xbdfba747	-0.12287765
87	0x3dedcd67	0.11611443
88	0xbe847d39	-0.25876787
89	0x3dc87df7	0.09789651
90	0x3b4d5649	0.0031331948
91	0xbd4f8a20	-0.050668836
92	0xbd26f048	-0.040756494
93	0xbde24e69	-0.11050112
94	0x3e7e5156	0.24835715
95	0xbe825afa	-0.25460035
96	0xbe86763a	-0.26262075
97	0x3e0fdd55	0.14049275
98	0xbe82014b	-0.2539161
99	0xbe41bd70	-0.18919921
100	0x3dfc09b6	0.1230654
101	0xbe0d0d3d	-0.13774581
102	0xbe128b5e	-0.14310977
103	0xbe345254	-0.1760953
104	0xbe380fbf	-0.17974757
105	0xbd3dbe5d	-0.046324123
106	0x3c974d84	0.01846958
107	0x3e6a50be	0.22882363
108	0x3db1cde3	0.08681848
109	0x3d855f54	0.06512323
110	0xbe44d858	-0.19223154
111	0x3e7c10ac	0.24615735
112	0xbe8d6ceb	-0.2762216
113	0xbe9de916	-0.30841893
114	0x3c4879d6	0.012236079
115	0x3e2cb691	0.16866519
116	0xbc8888cd	-0.016666794
117	0x3d9d5698	0.07682532
118	0x3e997756	0.2997386
119	0xbbd79997	-0.0065795886
120	0xbdbcde59	-0.09222097
121	0x3ec4525d	0.38344088
122	0x3db83742	0.089949146
123	0xbd57c7ca	-0.052680768
124	0xbd0ac029	-0.033874664
125	0xbeae4a03	-0.3404084
126	0xbdfd1279	-0.12357039
127	0xbd711577	-0.05885836
128	0xbe97a970	-0.29621458
129	0x3ceabca3	0.028654402
130	0x3d5dbd33	0.054135513
131	0x3c529889	0.01285375
132	0x3db37ced	0.08764062
133	0xbeae30de	-0.34021658
134	0x3e2e685c	0.17031997
135	0x3d856500	0.06513405
136	0xbe754760	-0.23953009
137	0xbe216781	-0.1576214
138	0xbe1dbd8b	-0.15404336
139	0x3e8665af	0.26249453
140	0xbd7463e9	-0.059665594
141	0x3e16e52e	0.14735863
142	0xbe0a73a0	-0.1352067
143	0xbdc9690a	-0.09834488
144	0xbd80e0a4	-0.06292847
145	0x3c4d705a	0.012538994
146	0xbc68de02	-0.014213087
147	0xbdf86b47	-0.121298365
148	0xbd3e4442	-0.046451814
149	0xbd1c4b8c	-0.038157985
150	0xbd60a1a9	-0.05484167
151	0xbdc86c7b	-0.09786316
152	0xbe94210b	-0.2893146
153	0xbc9ae311	-0.018907102
154	0xbe223dbc	-0.15843862
155	0x3d2c89b2	0.042123504
156	0x3de13b92	0.1099769
157	0xbd262ef4	-0.04057212
158	0xbe7f790b	-0.24948518
159	0x3c3dec76	0.011592021
160	0xbdb783bc	-0.08960673
161	0x3e4d3ce1	0.20042755
162	0x3da5d007	0.08096319
163	0xbe91aee3	-0.2845374
164	0x3d039f9f	0.03213465
165	0x3b600287	0.0034181194
166	0xbd9d4665	-0.07679442
167	0xbe156a7e	-0.14591405
168	0xbd0d9da8	-0.03457418
169	0x3e2ae385	0.16688354
170	0x3c796a20	0.015223056
171	0x3c94a1c2	0.018143538
172	0x3ddc83ba	0.10767312
173	0x3df63eaf	0.12023675
174	0x3db2ae17	0.08724611
175	0x3d635570	0.0555014
176	0xbdd80483	-0.105477355
177	0x3ddcc855	0.10780398
178	0x3e4201ad	0.18945952
179	0x3e076f80	0.13226128
180	0xbe3d23ad	-0.1847064
181	0xbe45e7b8	-0.19326675
182	0x3dfbaaee	0.122884616
183	0xbd79eb90	-0.061015666
184	0xbe251018	-0.1611942
185	0xbe3cd796	-0.18441615
186	0x3e8d3235	0.27577367
187	0xbd9544b2	-0.07288493
188	0x3da10865	0.07862929
189	0xbe49a0f4	-0.19690305
190	0xbdc45128	-0.09585792
191	0x3d5375e2	0.051626094
192	0xbe463df1	-0.19359566
193	0xbcdfe5c7	-0.027331246
194	0x3e4cffb9	0.20019425
195	0x3c960efb	0.01831769
196	0x3c9ec93a	0.019383062
197	0x3e522950	0.20523572
198	0xbeb6b93c	-0.35688198
199	0x3e299258	0.16559732
200	0x3d000d7b	0.031262856
201	0xbdce4ea5	-0.10073594
202	0x3e815bf1	0.25265458
203	0x3d539301	0.051653866
204	0xbe3a9c79	-0.18223752
205	0xbc45d7c2	-0.012075366
206	0x3e2f4371	0.1711557
207	0x3d217a33	0.03942318
208	0x3ba2b4b2	0.004965388
209	0x3e8cd538	0.27506423
210	0x3ed15b6e	0.40890068
211	0x3d1380f5	0.036011655
212	0x3bcbba19	0.006217253
213	0xbe359e4b	-0.17736165
214	0xbe205d2e	-0.15660545
215	0xbd2e4ce6	-0.042553805
216	0x3cc026d8	0.023456022
217	0x3d1120a8	0.035431534
218	0x3e866260	0.2624693
219	0x3cd53c44	0.026029713
220	0x3cddefe5	0.02709193
221	0xbd043848	-0.032280236
222	0x3cb8af2d	0.022544468
223	0x3e2529c7	0.16129218
224	0xbe5f3fc7	-0.21801673
225	0x3e4a66e5	0.19765814
226	0x3e095198	0.13410032
227	0xbd6c36ab	-0.057669323
228	0x3e15ecd8	0.1464113
229	0x3deac9af	0.11464249
230	0x3dd34477	0.10315793
231	0xbdd338ff	-0.103136055
232	0x3da46f7f	0.08029079
233	0x3de145bf	0.10999631
234	0xbd179add	-0.037012924
235	0xbdf606b3	-0.120129965
236	0x3cee99f9	0.029126154
237	0xbdaa57d7	-0.08317535
238	0x3d0d5b2a	0.03451077
239	0xbd18ac99	-0.037273977
240	0x3e93c403	0.28860483
241	0x3da5bb5a	0.08092375
242	0xbe913e54	-0.28367865
243	0x3ea13e4a	0.31492835
244	0x3e596211	0.21228816
245	0xbe19c2ec	-0.15015763
246	0x3b72ff5f	0.0037078483
247	0xbe8bb6cc	-0.272879
248	0x3d8d3ca8	0.06896335
249	0xbe919fb7	-0.28442165
250	0x3da3eefc	0.08004567
251	0xbdd0c7b4	-0.1019434
252	0x3d0e4054	0.034729317
253	0x3e0c0dad	0.13677092
254	0x3d9c8e05	0.076442756
255	0x3d4c14a8	0.049824387

while/MatMul1 f4 [36, 24]
0	0x3e810267	0.25197145
1	0xbe0a6388	-0.1351453
2	0x3e2fa4d6	0.17152724
3	0xbea3a4aa	-0.31961566
4	0xbe84b169	-0.25916603
5	0xbdc578d6	-0.09642188
6	0xbe5753b7	-0.21028028
7	0x3e9f91dc	0.3116597
8	0xbe6b5642	-0.22982123
9	0x3c353473	0.011059868
10	0xbead575e	-0.33855718
11	0x3cb4a4c0	0.022051215
12	0xbb16f977	-0.0023036876
13	0xbe2b5ae7	-0.16733895
14	0xbd6cea7b	-0.057840806
15	0xbec818d7	-0.3908145
16	0xbe1ebf88	-0.15502751
17	0x3d1c5e9a	0.038176157
18	0x3e95779b	0.29192814
19	0xbe80abf0	-0.25131178
20	0xbe25f23b	-0.16205685
21	0xbe9f730e	-0.31142467
22	0x3da3f007	0.08004766
23	0xbe699438	-0.22810447
24	0xbeae1348	-0.33999085
25	0xbeab3cb9	-0.33444765
26	0xbd486182	-0.048921116
27	0xbe89eed6	-0.2694003
28	0x3e40eb6c	0.18839806
29	0xbdc56f00	-0.09640312
30	0xbe4fcb2c	-0.20292348
31	0x3d0d41f5	0.03448673
32	0x3dcb5a5d	0.09929345
33	0xbd1eb3e1	-0.038745765
34	0xbe22b7c0	-0.15890408
35	0x3d9e3ab4	0.077260405
36	0xbe265029	-0.16241516
37	0xbd226352	-0.0396455
38	0xbea4faa9	-0.3222249
39	0x3ea55ef4	0.32299006
40	0x3dd6a7b4	0.104812056
41	0xbe241e65	-0.1602722
42	0xbd9cd4a1	-0.07657743
43	0x3e6ae9f8	0.22940814
44	0x3dae8183	0.08520796
45	0x3e75aa46	0.23990735
46	0xbd538c43	-0.051647436
47	0xbdc1f4ae	-0.09470497
48	0x3e058e29	0.13042511
49	0x3e7d0b72	0.24711397
50	0x3db1245d	0.08649514
51	0x3e991396	0.29897755
52	0xbc1d5576	-0.009602895
53	0x3e2c8a79	0.16849698
54	0xbe34950d	-0.17634983
55	0x3e47a2e1	0.19495727
56	0xbd76941f	-0.060199853
57	0xbdd3e1aa	-0.103457764
58	0x3d2d8c9c	0.042370424
59	0xbe72c404	-0.23707587
60	0x3c666d96	0.014064213
61	0x3defa214	0.11700836
62	0x3dcc3248	0.09970528
63	0xbbb16d79	-0.0054146615
64	0x3d264467	0.040592577
65	0xbe868d39	-0.2627962
66	0x3e412353	0.18861131
67	0x3e8e3713	0.27776393
68	0x3c393c7c	0.0113059245
69	0x3cf2eff6	0.029655438
70	0xbde4edf0	-0.111781955
71	0x3d9b0452	0.075691834
72	0xbe366f17	-0.17815815
73	0x3dabf152	0.083956376
74	0x3e878cf2	0.2647472
75	0x3dcd24ee	0.100168094
76	0xbdd0d033	-0.10195961
77	0x3e039c6b	0.12852637
78	0x3e5303bb	0.20606892
79	0x3e831422	0.25601298
80	0x3dca6f3c	0.098844975
81	0x3d0c2944	0.03421904
82	0xbe6239e6	-0.22092399
83	0xbdc619d6	-0.096728966
84	0x3e8b59ac	0.27216852
85	0x3e8babf3	0.27279624
86	0x3e581c91	0.21104647
87	0x3e607a52	0.21921661
88	0xbe225e87	-0.15856372
89	0xbe03254b	-0.12807195
90	0x3e085741	0.13314535
91	0xbc73f0fc	-0.014888998
92	0xbd22fe38	-0.039793223
93	0xbeb6bbb9	-0.35690096
94	0x3ea377ce	0.3192734
95	0xbeb8cc25	-0.3609325
96	0x3e8dab8b	0.2766994
97	0x3e710007	0.23535167
98	0xbe16ee9d	-0.14739461
99	0x3e5b8608	0.21437848
100	0x3d91bf54	0.07116571
101	0x3d98d478	0.074624
102	0x3e907c2c	0.28219736
103	0xbe967b6b	-0.29391035
104	0x3e5b4f7f	0.21417044
105	0xbe1f20c0	-0.15539837
106	0x3de77913	0.1130239
107	0xbd8243e7	-0.063606076
108	0x3be3e698	0.006954979
109	0xbda7daa0	-0.08195996
110	0xbde90402	-0.113777176
111	0x3e8e705a	0.27820092
112	0xbdfa41ce	-0.122195825
113	0x3e906478	0.28201652
114	0xbe281ae4	-0.16416508
115	0x3e821034	0.25402987
116	0xbe1b55c9	-0.15169443
117	0x3dc7bf0a	0.09753235
118	0xbc980b8e	-0.018560197
119	0x3e095d93	0.13414602
120	0x3dd5bfcc	0.10436973
121	0x3eb0fccd	0.34567872
122	0x3d627783	0.055289757
123	0xbe2966c8	-0.16543114
124	0xbe45db3c	-0.19321913
125	0xbdc1d8fb	-0.09465214
126	0xbe50189a	-0.20321885
127	0x3d1c918d	0.038224746
128	0xbe8ecc6b	-0.27890334
129	0x3eac708c	0.33679616
130	0x3e428d63	0.18999247
131	0x3eacf464	0.33780205
132	0xbe63da49	-0.22251238
133	0x3ed1d37d	0.40981665
134	0x3e039431	0.128495
135	0x3e1bab3d	0.15202041
136	0x3e6d2f69	0.23162617
137	0x3da941af	0.08264481
138	0xbe4ff285	-0.20307358
139	0x3e2f97f2	0.17147806
140	0xbe28788a	-0.16452232
141	0x3e6300f3	0.22168331
142	0xbd443e89	-0.0479112
143	0x3d9cc5bd	0.07654903
144	0x3ea0d39d	0.31411448
145	0xbe5b3bc9	-0.21409525
146	0x3da02ec3	0.07821419
147	0xbd3defec	-0.046371385
148	0xbdd5682c	-0.1042026
149	0x3e969f72	0.29418522
150	0xbe67d8d4	-0.22641307
151	0x3ead504c	0.33850324
152	0x3e5168f8	0.20450199
153	0xbe5f6904	-0.21817404
154	0xbda8e788	-0.08247286
155	0x3baddcaa	0.005305846
156	0x3e7055eb	0.23470275
157	0xbe244e30	-0.16045451
158	0xbe1bd2ec	-0.15217179
159	0x3e83d6c4	0.2574979
160	0x3e2a83ed	0.16651888
161	0x3dc75947	0.09733825
162	0xbe858f9f	-0.26086137
163	0x3e5d68d4	0.2162202
164	0xbd49fbe3	-0.049312484
165	0x3e27dfb5	0.16393931
166	0xbe5c6cdd	-0.21525903
167	0x3e85d339	0.26137713
168	0xbe655b89	-0.22398199
169	0x3e1627ac	0.14663571
170	0xbe3de5fd	-0.18544765
171	0xbe9a17d0	-0.30096292
172	0x3e8edff0	0.27905226
173	0x3dc2ea5e	0.09517358
174	0xbd09be07	-0.03362849
175	0x3e41704a	0.18890491
176	0x3d83cc45	0.06435446
177	0xbda6165c	-0.081097335
178	0xbc601e80	-0.013679147
179	0xbc17dd59	-0.009269082
180	0x3d946ba3	0.072470926
181	0xbe4edf00	-0.20202255
182	0xbb91ab2a	-0.004445453
183	0x3c2103a2	0.009827526
184	0xbe4d9289	-0.2007543
185	0x3a59803a	0.00082970003
186	0xbe9c414c	-0.30518568
187	0xbe74e4d5	-0.23915417
188	0x3e9afde1	0.3027182
189	0x3ea23bb7	0.31686184
190	0xbe3e6bc8	-0.18595803
191	0x3e508dba	0.20366564
192	0xbe80b78e	-0.2514004
193	0x3e878d0f	0.26474807
194	0xbe45b77e	-0.19308278
195	0xbe0e6336	-0.13905033
196	0x3ea6b870	0.3256259
197	0x3e088f35	0.13335879
198	0xbe5a4043	-0.21313576
199	0xbe7af445	-0.24507244
200	0x3e74edb6	0.23918805
201	0x3d6eaa30	0.058267772
202	0x3cd8c3c3	0.026460534
203	0xbe9a14fd	-0.30094138
204	0xbd9d1e8c	-0.07671842
205	0x3d8982fe	0.06714438
206	0xbe946850	-0.28985834
207	0xbe40bb7f	-0.18821524
208	0xbe55983e	-0.20858857
209	0x3df3fd34	0.11913529
210	0xbc5d638b	-0.013512502
211	0x3c005e6a	0.00783501
212	0x3e056f98	0.13030851
213	0xbd693bcc	-0.056941792
214	0xbe55e672	-0.20888689
215	0x3e4230d9	0.18963946
216	0xbe832455	-0.25613657
217	0xbe1d0f3d	-0.15337844
218	0x3e989d0e	0.29807323
219	0x3d86d910	0.0658437
220	0xbe9e1705	-0.30876938
221	0xbe8fc2fd	-0.28078452
222	0x3e33012f	0.1748092
223	0x3e7eaf1d	0.24871488
224	0xbdb7c553	-0.089731835
225	0x3e53f195	0.20697625
226	0xbe6fdc55	-0.23423894
227	0x3e36ee0e	0.17864248
228	0x3e5f88d2	0.21829537
229	0x3e7d9c0c	0.24766558
230	0x3e227a6e	0.15867016
231	0x3e897a8a	0.26851302
232	0xbe900ca7	-0.28134653
233	0x3df093b3	0.117469214
234	0x3e1fd789	0.15609564
235	0x3e6e8f00	0.23296738
236	0x3e5cd83f	0.21566866
237	0xbe8e2cbc	-0.27768505
238	0xbe89cb73	-0.26913032
239	0x3e66fcfc	0.22557443
240	0x3e063f9a	0.131102
241	0xbe088f9c	-0.13336033
242	0xbd231860	-0.039818168
243	0xbe341cbd	-0.17589088
244	0xbaa271d9	-0.0012393548
245	0xbe77b813	-0.24191312
246	0x3c69687e	0.014246104
247	0xbe0aa322	-0.13538793
248	0x3e6b7c95	0.22996743
249	0xbe225b71	-0.15855195
250	0xbe29207f	-0.16516303
251	0x3de71e38	0.11285061
252	0xbe46f1a5	-0.19428118
253	0x3e9aacab	0.3020986
254	0xbb82b283	-0.0039885654
255	0xbe78041f	-0.24220322
